…
I0824 19:06:40.137682  7122 net.cpp:294] The NetState phase (0) differed from the phase (1) specified by a rule in layer cifar
I0824 19:06:40.137697  7122 net.cpp:294] The NetState phase (0) differed from the phase (1) specified by a rule in layer accuracy
I0824 19:06:40.137758  7122 net.cpp:51] Initializing net from parameters: 
name: "PSConv_CIFAR10"
state {
  phase: TRAIN
  level: 0
  stage: ""
}
layer {
  name: "cifar"
  type: "Data"
  top: "data"
  top: "label"
  include {
    phase: TRAIN
  }
  transform_param {
    mean_file: "../mean.binaryproto"
  }
  data_param {
    source: "../cifar10_train_lmdb"
    batch_size: 100
    backend: LMDB
  }
}
layer {
  name: "conv1"
  type: "Convolution"
  bottom: "data"
  top: "conv1"
  param {
    lr_mult: 1
  }
  param {
    lr_mult: 2
  }
  convolution_param {
    num_output: 90
    pad: 1
    kernel_size: 3
    stride: 1
  }
}
layer {
  name: "relu1"
  type: "ReLU"
  bottom: "conv1"
  top: "conv1"
}
layer {
  name: "conv2"
  type: "Convolution"
  bottom: "conv1"
  top: "conv2"
  param {
    lr_mult: 1
  }
  param {
    lr_mult: 2
  }
  convolution_param {
    num_output: 90
    pad: 1
    kernel_size: 3
    stride: 1
    engine: CAFFE
    dilation: 2
    ps_group: 9
    position_sensetive: true
  }
}
layer {
  name: "bn2"
  type: "BatchNorm"
  bottom: "conv2"
  top: "conv2"
}
layer {
  name: "scale2"
  type: "Scale"
  bottom: "conv2"
  top: "conv2"
  scale_param {
    bias_term: true
  }
}
layer {
  name: "relu2"
  type: "ReLU"
  bottom: "conv2"
  top: "conv2"
}
layer {
  name: "conv3"
  type: "Convolution"
  bottom: "conv2"
  top: "conv3"
  convolution_param {
    num_output: 360
    pad: 1
    kernel_size: 3
    stride: 1
    engine: CAFFE
    ps_group: 9
    position_sensetive: true
  }
}
layer {
  name: "relu3"
  type: "ReLU"
  bottom: "conv3"
  top: "conv3"
}
layer {
  name: "conv4"
  type: "Convolution"
  bottom: "conv3"
  top: "conv4"
  convolution_param {
    num_output: 10
    pad: 1
    kernel_size: 3
    stride: 1
    engine: CAFFE
    dilation: 2
    ps_group: 9
    position_sensetive: true
  }
}
layer {
  name: "pool"
  type: "Pooling"
  bottom: "conv4"
  top: "pool"
  pooling_param {
    pool: AVE
    global_pooling: true
  }
}
layer {
  name: "loss"
  type: "SoftmaxWithLoss"
  bottom: "pool"
  bottom: "label"
  top: "loss"
}
I0824 19:06:40.138046  7122 layer_factory.hpp:77] Creating layer cifar
I0824 19:06:40.138182  7122 db_lmdb.cpp:35] Opened lmdb ../cifar10_train_lmdb
I0824 19:06:40.138216  7122 net.cpp:84] Creating Layer cifar
I0824 19:06:40.138233  7122 net.cpp:380] cifar -> data
I0824 19:06:40.138312  7122 net.cpp:380] cifar -> label
I0824 19:06:40.138337  7122 data_transformer.cpp:25] Loading mean file from: ../mean.binaryproto
I0824 19:06:40.139495  7122 data_layer.cpp:45] output data size: 100,3,32,32
I0824 19:06:40.142944  7122 base_data_layer.cpp:72] Initializing prefetch
I0824 19:06:40.143081  7122 base_data_layer.cpp:75] Prefetch initialized.
I0824 19:06:40.143090  7122 net.cpp:122] Setting up cifar
I0824 19:06:40.143113  7122 net.cpp:129] Top shape: 100 3 32 32 (307200)
I0824 19:06:40.143118  7122 net.cpp:129] Top shape: 100 (100)
I0824 19:06:40.143121  7122 net.cpp:137] Memory required for data: 1229200
I0824 19:06:40.143153  7122 layer_factory.hpp:77] Creating layer conv1
I0824 19:06:40.143226  7122 net.cpp:84] Creating Layer conv1
I0824 19:06:40.143259  7122 net.cpp:406] conv1 <- data
I0824 19:06:40.143308  7122 net.cpp:380] conv1 -> conv1
I0824 19:06:40.146072  7127 data_layer.cpp:128] Prefetch batch: 2 ms.
I0824 19:06:40.146105  7127 data_layer.cpp:129]      Read time: 0.159 ms.
I0824 19:06:40.146109  7127 data_layer.cpp:130] Transform time: 2.195 ms.
I0824 19:06:40.156311  7127 data_layer.cpp:128] Prefetch batch: 2 ms.
I0824 19:06:40.156332  7127 data_layer.cpp:129]      Read time: 0.16 ms.
I0824 19:06:40.156334  7127 data_layer.cpp:130] Transform time: 2.139 ms.
I0824 19:06:40.168460  7127 data_layer.cpp:128] Prefetch batch: 7 ms.
I0824 19:06:40.168478  7127 data_layer.cpp:129]      Read time: 0.2 ms.
I0824 19:06:40.168481  7127 data_layer.cpp:130] Transform time: 2.295 ms.
I0824 19:06:40.174773  7127 data_layer.cpp:128] Prefetch batch: 4 ms.
I0824 19:06:40.174791  7127 data_layer.cpp:129]      Read time: 0.144 ms.
I0824 19:06:40.174794  7127 data_layer.cpp:130] Transform time: 4.155 ms.
I0824 19:06:40.650478  7122 cudnn_conv_layer.cpp:194] Reallocating workspace storage: 589824
I0824 19:06:40.650503  7122 net.cpp:122] Setting up conv1
I0824 19:06:40.650530  7122 net.cpp:129] Top shape: 100 90 32 32 (9216000)
I0824 19:06:40.650532  7122 net.cpp:137] Memory required for data: 38093200
I0824 19:06:40.650604  7122 layer_factory.hpp:77] Creating layer relu1
I0824 19:06:40.650650  7122 net.cpp:84] Creating Layer relu1
I0824 19:06:40.650660  7122 net.cpp:406] relu1 <- conv1
I0824 19:06:40.650674  7122 net.cpp:367] relu1 -> conv1 (in-place)
I0824 19:06:40.650815  7122 net.cpp:122] Setting up relu1
I0824 19:06:40.650822  7122 net.cpp:129] Top shape: 100 90 32 32 (9216000)
I0824 19:06:40.650825  7122 net.cpp:137] Memory required for data: 74957200
I0824 19:06:40.650828  7122 layer_factory.hpp:77] Creating layer conv2
I0824 19:06:40.650863  7122 net.cpp:84] Creating Layer conv2
I0824 19:06:40.650868  7122 net.cpp:406] conv2 <- conv1
I0824 19:06:40.650879  7122 net.cpp:380] conv2 -> conv2
I0824 19:06:40.651541  7122 net.cpp:122] Setting up conv2
I0824 19:06:40.651554  7122 net.cpp:129] Top shape: 100 90 30 30 (8100000)
I0824 19:06:40.651556  7122 net.cpp:137] Memory required for data: 107357200
I0824 19:06:40.651585  7122 layer_factory.hpp:77] Creating layer bn2
I0824 19:06:40.651602  7122 net.cpp:84] Creating Layer bn2
I0824 19:06:40.651607  7122 net.cpp:406] bn2 <- conv2
I0824 19:06:40.651617  7122 net.cpp:367] bn2 -> conv2 (in-place)
I0824 19:06:40.651778  7122 net.cpp:122] Setting up bn2
I0824 19:06:40.651784  7122 net.cpp:129] Top shape: 100 90 30 30 (8100000)
I0824 19:06:40.651787  7122 net.cpp:137] Memory required for data: 139757200
I0824 19:06:40.651820  7122 layer_factory.hpp:77] Creating layer scale2
I0824 19:06:40.651835  7122 net.cpp:84] Creating Layer scale2
I0824 19:06:40.651840  7122 net.cpp:406] scale2 <- conv2
I0824 19:06:40.651849  7122 net.cpp:367] scale2 -> conv2 (in-place)
I0824 19:06:40.651908  7122 layer_factory.hpp:77] Creating layer scale2
I0824 19:06:40.652032  7122 net.cpp:122] Setting up scale2
I0824 19:06:40.652040  7122 net.cpp:129] Top shape: 100 90 30 30 (8100000)
I0824 19:06:40.652042  7122 net.cpp:137] Memory required for data: 172157200
I0824 19:06:40.652055  7122 layer_factory.hpp:77] Creating layer relu2
I0824 19:06:40.652063  7122 net.cpp:84] Creating Layer relu2
I0824 19:06:40.652067  7122 net.cpp:406] relu2 <- conv2
I0824 19:06:40.652094  7122 net.cpp:367] relu2 -> conv2 (in-place)
I0824 19:06:40.652551  7122 net.cpp:122] Setting up relu2
I0824 19:06:40.652560  7122 net.cpp:129] Top shape: 100 90 30 30 (8100000)
I0824 19:06:40.652562  7122 net.cpp:137] Memory required for data: 204557200
I0824 19:06:40.652567  7122 layer_factory.hpp:77] Creating layer conv3
I0824 19:06:40.652580  7122 net.cpp:84] Creating Layer conv3
I0824 19:06:40.652585  7122 net.cpp:406] conv3 <- conv2
I0824 19:06:40.652616  7122 net.cpp:380] conv3 -> conv3
I0824 19:06:40.653344  7122 net.cpp:122] Setting up conv3
I0824 19:06:40.653354  7122 net.cpp:129] Top shape: 100 360 30 30 (32400000)
I0824 19:06:40.653357  7122 net.cpp:137] Memory required for data: 334157200
I0824 19:06:40.653367  7122 layer_factory.hpp:77] Creating layer relu3
I0824 19:06:40.653378  7122 net.cpp:84] Creating Layer relu3
I0824 19:06:40.653393  7122 net.cpp:406] relu3 <- conv3
I0824 19:06:40.653409  7122 net.cpp:367] relu3 -> conv3 (in-place)
I0824 19:06:40.653533  7122 net.cpp:122] Setting up relu3
I0824 19:06:40.653540  7122 net.cpp:129] Top shape: 100 360 30 30 (32400000)
I0824 19:06:40.653543  7122 net.cpp:137] Memory required for data: 463757200
I0824 19:06:40.653548  7122 layer_factory.hpp:77] Creating layer conv4
I0824 19:06:40.653558  7122 net.cpp:84] Creating Layer conv4
I0824 19:06:40.653564  7122 net.cpp:406] conv4 <- conv3
I0824 19:06:40.653578  7122 net.cpp:380] conv4 -> conv4
I0824 19:06:40.653775  7122 net.cpp:122] Setting up conv4
I0824 19:06:40.653784  7122 net.cpp:129] Top shape: 100 10 28 28 (784000)
I0824 19:06:40.653789  7122 net.cpp:137] Memory required for data: 466893200
I0824 19:06:40.653816  7122 layer_factory.hpp:77] Creating layer pool
I0824 19:06:40.653847  7122 net.cpp:84] Creating Layer pool
I0824 19:06:40.653853  7122 net.cpp:406] pool <- conv4
I0824 19:06:40.653880  7122 net.cpp:380] pool -> pool
I0824 19:06:40.654070  7122 net.cpp:122] Setting up pool
I0824 19:06:40.654079  7122 net.cpp:129] Top shape: 100 10 1 1 (1000)
I0824 19:06:40.654096  7122 net.cpp:137] Memory required for data: 466897200
I0824 19:06:40.654100  7122 layer_factory.hpp:77] Creating layer loss
I0824 19:06:40.654116  7122 net.cpp:84] Creating Layer loss
I0824 19:06:40.654124  7122 net.cpp:406] loss <- pool
I0824 19:06:40.654146  7122 net.cpp:406] loss <- label
I0824 19:06:40.654171  7122 net.cpp:380] loss -> loss
I0824 19:06:40.654189  7122 layer_factory.hpp:77] Creating layer loss
…
I0824 19:06:40.654744  7122 solver.cpp:172] Creating test net (#0) specified by net file: PSConv_cifar10_quick_train_test.prototxt
I0824 19:06:40.654788  7122 net.cpp:294] The NetState phase (1) differed from the phase (0) specified by a rule in layer cifar
I0824 19:06:40.654857  7122 net.cpp:51] Initializing net from parameters: 
name: "PSConv_CIFAR10"
state {
  phase: TEST
}
layer {
  name: "cifar"
  type: "Data"
  top: "data"
  top: "label"
  include {
    phase: TEST
  }
  transform_param {
    mean_file: "../mean.binaryproto"
  }
  data_param {
    source: "../cifar10_test_lmdb"
    batch_size: 100
    backend: LMDB
  }
}
layer {
  name: "conv1"
  type: "Convolution"
  bottom: "data"
  top: "conv1"
  param {
    lr_mult: 1
  }
  param {
    lr_mult: 2
  }
  convolution_param {
    num_output: 90
    pad: 1
    kernel_size: 3
    stride: 1
  }
}
layer {
  name: "relu1"
  type: "ReLU"
  bottom: "conv1"
  top: "conv1"
}
layer {
  name: "conv2"
  type: "Convolution"
  bottom: "conv1"
  top: "conv2"
  param {
    lr_mult: 1
  }
  param {
    lr_mult: 2
  }
  convolution_param {
    num_output: 90
    pad: 1
    kernel_size: 3
    stride: 1
    engine: CAFFE
    dilation: 2
    ps_group: 9
    position_sensetive: true
  }
}
layer {
  name: "bn2"
  type: "BatchNorm"
  bottom: "conv2"
  top: "conv2"
}
layer {
  name: "scale2"
  type: "Scale"
  bottom: "conv2"
  top: "conv2"
  scale_param {
    bias_term: true
  }
}
layer {
  name: "relu2"
  type: "ReLU"
  bottom: "conv2"
  top: "conv2"
}
layer {
  name: "conv3"
  type: "Convolution"
  bottom: "conv2"
  top: "conv3"
  convolution_param {
    num_output: 360
    pad: 1
    kernel_size: 3
    stride: 1
    engine: CAFFE
    ps_group: 9
    position_sensetive: true
  }
}
layer {
  name: "relu3"
  type: "ReLU"
  bottom: "conv3"
  top: "conv3"
}
layer {
  name: "conv4"
  type: "Convolution"
  bottom: "conv3"
  top: "conv4"
  convolution_param {
    num_output: 10
    pad: 1
    kernel_size: 3
    stride: 1
    engine: CAFFE
    dilation: 2
    ps_group: 9
    position_sensetive: true
  }
}
layer {
  name: "pool"
  type: "Pooling"
  bottom: "conv4"
  top: "pool"
  pooling_param {
    pool: AVE
    global_pooling: true
  }
}
layer {
  name: "accuracy"
  type: "Accuracy"
  bottom: "pool"
  bottom: "label"
  top: "accuracy"
  include {
    phase: TEST
  }
}
layer {
  name: "loss"
  type: "SoftmaxWithLoss"
  bottom: "pool"
  bottom: "label"
  top: "loss"
}
I0824 19:06:40.655067  7122 layer_factory.hpp:77] Creating layer cifar
I0824 19:06:40.655129  7122 db_lmdb.cpp:35] Opened lmdb ../cifar10_test_lmdb
I0824 19:06:40.655144  7122 net.cpp:84] Creating Layer cifar
I0824 19:06:40.655158  7122 net.cpp:380] cifar -> data
I0824 19:06:40.655182  7122 net.cpp:380] cifar -> label
I0824 19:06:40.655200  7122 data_transformer.cpp:25] Loading mean file from: ../mean.binaryproto
I0824 19:06:40.655375  7122 data_layer.cpp:45] output data size: 100,3,32,32
I0824 19:06:40.658936  7122 base_data_layer.cpp:72] Initializing prefetch
I0824 19:06:40.658993  7122 base_data_layer.cpp:75] Prefetch initialized.
I0824 19:06:40.659000  7122 net.cpp:122] Setting up cifar
I0824 19:06:40.659016  7122 net.cpp:129] Top shape: 100 3 32 32 (307200)
I0824 19:06:40.659024  7122 net.cpp:129] Top shape: 100 (100)
I0824 19:06:40.659026  7122 net.cpp:137] Memory required for data: 1229200
I0824 19:06:40.659044  7122 layer_factory.hpp:77] Creating layer label_cifar_1_split
I0824 19:06:40.659075  7122 net.cpp:84] Creating Layer label_cifar_1_split
I0824 19:06:40.659085  7122 net.cpp:406] label_cifar_1_split <- label
I0824 19:06:40.659106  7122 net.cpp:380] label_cifar_1_split -> label_cifar_1_split_0
I0824 19:06:40.659129  7122 net.cpp:380] label_cifar_1_split -> label_cifar_1_split_1
I0824 19:06:40.659179  7122 net.cpp:122] Setting up label_cifar_1_split
I0824 19:06:40.659188  7122 net.cpp:129] Top shape: 100 (100)
I0824 19:06:40.659193  7122 net.cpp:129] Top shape: 100 (100)
I0824 19:06:40.659198  7122 net.cpp:137] Memory required for data: 1230000
I0824 19:06:40.659204  7122 layer_factory.hpp:77] Creating layer conv1
I0824 19:06:40.659226  7122 net.cpp:84] Creating Layer conv1
I0824 19:06:40.659232  7122 net.cpp:406] conv1 <- data
I0824 19:06:40.659250  7122 net.cpp:380] conv1 -> conv1
I0824 19:06:40.660214  7122 cudnn_conv_layer.cpp:194] Reallocating workspace storage: 589824
I0824 19:06:40.660229  7122 net.cpp:122] Setting up conv1
I0824 19:06:40.660238  7122 net.cpp:129] Top shape: 100 90 32 32 (9216000)
I0824 19:06:40.660243  7122 net.cpp:137] Memory required for data: 38094000
I0824 19:06:40.660269  7122 layer_factory.hpp:77] Creating layer relu1
I0824 19:06:40.660281  7122 net.cpp:84] Creating Layer relu1
I0824 19:06:40.660290  7122 net.cpp:406] relu1 <- conv1
I0824 19:06:40.660303  7122 net.cpp:367] relu1 -> conv1 (in-place)
I0824 19:06:40.660702  7122 net.cpp:122] Setting up relu1
I0824 19:06:40.660711  7122 net.cpp:129] Top shape: 100 90 32 32 (9216000)
I0824 19:06:40.660717  7122 net.cpp:137] Memory required for data: 74958000
I0824 19:06:40.660722  7122 layer_factory.hpp:77] Creating layer conv2
I0824 19:06:40.660742  7122 net.cpp:84] Creating Layer conv2
I0824 19:06:40.660749  7122 net.cpp:406] conv2 <- conv1
I0824 19:06:40.660766  7122 net.cpp:380] conv2 -> conv2
I0824 19:06:40.661052  7122 net.cpp:122] Setting up conv2
I0824 19:06:40.661065  7122 net.cpp:129] Top shape: 100 90 30 30 (8100000)
I0824 19:06:40.661069  7122 net.cpp:137] Memory required for data: 107358000
I0824 19:06:40.661087  7122 layer_factory.hpp:77] Creating layer bn2
I0824 19:06:40.661100  7122 net.cpp:84] Creating Layer bn2
I0824 19:06:40.661108  7122 net.cpp:406] bn2 <- conv2
I0824 19:06:40.661119  7122 net.cpp:367] bn2 -> conv2 (in-place)
I0824 19:06:40.661342  7122 net.cpp:122] Setting up bn2
I0824 19:06:40.661351  7122 net.cpp:129] Top shape: 100 90 30 30 (8100000)
I0824 19:06:40.661355  7122 net.cpp:137] Memory required for data: 139758000
I0824 19:06:40.661381  7122 layer_factory.hpp:77] Creating layer scale2
I0824 19:06:40.661394  7122 net.cpp:84] Creating Layer scale2
I0824 19:06:40.661401  7122 net.cpp:406] scale2 <- conv2
I0824 19:06:40.661414  7122 net.cpp:367] scale2 -> conv2 (in-place)
I0824 19:06:40.661466  7122 layer_factory.hpp:77] Creating layer scale2
I0824 19:06:40.661602  7122 net.cpp:122] Setting up scale2
I0824 19:06:40.661612  7122 net.cpp:129] Top shape: 100 90 30 30 (8100000)
I0824 19:06:40.661617  7122 net.cpp:137] Memory required for data: 172158000
I0824 19:06:40.661634  7122 layer_factory.hpp:77] Creating layer relu2
I0824 19:06:40.661646  7122 net.cpp:84] Creating Layer relu2
I0824 19:06:40.661653  7122 net.cpp:406] relu2 <- conv2
I0824 19:06:40.661669  7122 net.cpp:367] relu2 -> conv2 (in-place)
I0824 19:06:40.661821  7122 net.cpp:122] Setting up relu2
I0824 19:06:40.661831  7122 net.cpp:129] Top shape: 100 90 30 30 (8100000)
I0824 19:06:40.661835  7122 net.cpp:137] Memory required for data: 204558000
I0824 19:06:40.661842  7122 layer_factory.hpp:77] Creating layer conv3
I0824 19:06:40.661859  7122 net.cpp:84] Creating Layer conv3
I0824 19:06:40.661864  7122 net.cpp:406] conv3 <- conv2
I0824 19:06:40.661877  7122 net.cpp:380] conv3 -> conv3
I0824 19:06:40.661947  7129 data_layer.cpp:128] Prefetch batch: 2 ms.
I0824 19:06:40.661960  7129 data_layer.cpp:129]      Read time: 0.155 ms.
I0824 19:06:40.661965  7129 data_layer.cpp:130] Transform time: 2.301 ms.
I0824 19:06:40.662354  7122 net.cpp:122] Setting up conv3
I0824 19:06:40.662364  7122 net.cpp:129] Top shape: 100 360 30 30 (32400000)
I0824 19:06:40.662366  7122 net.cpp:137] Memory required for data: 334158000
I0824 19:06:40.662391  7122 layer_factory.hpp:77] Creating layer relu3
I0824 19:06:40.662403  7122 net.cpp:84] Creating Layer relu3
I0824 19:06:40.662410  7122 net.cpp:406] relu3 <- conv3
I0824 19:06:40.662449  7122 net.cpp:367] relu3 -> conv3 (in-place)
I0824 19:06:40.662580  7122 net.cpp:122] Setting up relu3
I0824 19:06:40.662587  7122 net.cpp:129] Top shape: 100 360 30 30 (32400000)
I0824 19:06:40.662591  7122 net.cpp:137] Memory required for data: 463758000
I0824 19:06:40.662596  7122 layer_factory.hpp:77] Creating layer conv4
I0824 19:06:40.662628  7122 net.cpp:84] Creating Layer conv4
I0824 19:06:40.662636  7122 net.cpp:406] conv4 <- conv3
I0824 19:06:40.662678  7122 net.cpp:380] conv4 -> conv4
I0824 19:06:40.662889  7122 net.cpp:122] Setting up conv4
I0824 19:06:40.662897  7122 net.cpp:129] Top shape: 100 10 28 28 (784000)
I0824 19:06:40.662901  7122 net.cpp:137] Memory required for data: 466894000
I0824 19:06:40.662914  7122 layer_factory.hpp:77] Creating layer pool
I0824 19:06:40.662930  7122 net.cpp:84] Creating Layer pool
I0824 19:06:40.662938  7122 net.cpp:406] pool <- conv4
I0824 19:06:40.662955  7122 net.cpp:380] pool -> pool
I0824 19:06:40.663094  7122 net.cpp:122] Setting up pool
I0824 19:06:40.663105  7122 net.cpp:129] Top shape: 100 10 1 1 (1000)
I0824 19:06:40.663108  7122 net.cpp:137] Memory required for data: 466898000
I0824 19:06:40.663115  7122 layer_factory.hpp:77] Creating layer pool_pool_0_split
I0824 19:06:40.663126  7122 net.cpp:84] Creating Layer pool_pool_0_split
I0824 19:06:40.663134  7122 net.cpp:406] pool_pool_0_split <- pool
I0824 19:06:40.663156  7122 net.cpp:380] pool_pool_0_split -> pool_pool_0_split_0
I0824 19:06:40.663172  7122 net.cpp:380] pool_pool_0_split -> pool_pool_0_split_1
I0824 19:06:40.663221  7122 net.cpp:122] Setting up pool_pool_0_split
I0824 19:06:40.663229  7122 net.cpp:129] Top shape: 100 10 1 1 (1000)
I0824 19:06:40.663235  7122 net.cpp:129] Top shape: 100 10 1 1 (1000)
I0824 19:06:40.663239  7122 net.cpp:137] Memory required for data: 466906000
I0824 19:06:40.663259  7122 layer_factory.hpp:77] Creating layer accuracy
I0824 19:06:40.663276  7122 net.cpp:84] Creating Layer accuracy
I0824 19:06:40.663295  7122 net.cpp:406] accuracy <- pool_pool_0_split_0
I0824 19:06:40.663321  7122 net.cpp:406] accuracy <- label_cifar_1_split_0
I0824 19:06:40.663334  7122 net.cpp:380] accuracy -> accuracy
…
