…
I0824 19:08:15.368553  7187 net.cpp:294] The NetState phase (0) differed from the phase (1) specified by a rule in layer cifar
I0824 19:08:15.368568  7187 net.cpp:294] The NetState phase (0) differed from the phase (1) specified by a rule in layer accuracy
I0824 19:08:15.368633  7187 net.cpp:51] Initializing net from parameters: 
name: "PSConv_CIFAR10"
state {
  phase: TRAIN
  level: 0
  stage: ""
}
layer {
  name: "cifar"
  type: "Data"
  top: "data"
  top: "label"
  include {
    phase: TRAIN
  }
  transform_param {
    mean_file: "../mean.binaryproto"
  }
  data_param {
    source: "../cifar10_train_lmdb"
    batch_size: 100
    backend: LMDB
  }
}
layer {
  name: "conv1"
  type: "Convolution"
  bottom: "data"
  top: "conv1"
  param {
    lr_mult: 1
  }
  param {
    lr_mult: 2
  }
  convolution_param {
    num_output: 90
    pad: 1
    kernel_size: 3
    stride: 1
  }
}
layer {
  name: "relu1"
  type: "ReLU"
  bottom: "conv1"
  top: "conv1"
}
layer {
  name: "conv2"
  type: "Convolution"
  bottom: "conv1"
  top: "conv2"
  param {
    lr_mult: 1
  }
  param {
    lr_mult: 2
  }
  convolution_param {
    num_output: 90
    pad: 1
    kernel_size: 3
    stride: 1
    engine: CAFFE
    dilation: 2
    ps_group: 9
    position_sensetive: true
  }
}
layer {
  name: "bn2"
  type: "BatchNorm"
  bottom: "conv2"
  top: "conv2"
}
layer {
  name: "scale2"
  type: "Scale"
  bottom: "conv2"
  top: "conv2"
  scale_param {
    bias_term: true
  }
}
layer {
  name: "relu2"
  type: "ReLU"
  bottom: "conv2"
  top: "conv2"
}
layer {
  name: "conv3"
  type: "Convolution"
  bottom: "conv2"
  top: "conv3"
  convolution_param {
    num_output: 360
    pad: 1
    kernel_size: 3
    stride: 1
    engine: CAFFE
    ps_group: 9
    position_sensetive: true
  }
}
layer {
  name: "relu3"
  type: "ReLU"
  bottom: "conv3"
  top: "conv3"
}
layer {
  name: "conv4"
  type: "Convolution"
  bottom: "conv3"
  top: "conv4"
  convolution_param {
    num_output: 10
    pad: 1
    kernel_size: 3
    stride: 1
    engine: CAFFE
    dilation: 2
    ps_group: 9
    position_sensetive: true
  }
}
layer {
  name: "pool"
  type: "Pooling"
  bottom: "conv4"
  top: "pool"
  pooling_param {
    pool: AVE
    global_pooling: true
  }
}
layer {
  name: "loss"
  type: "SoftmaxWithLoss"
  bottom: "pool"
  bottom: "label"
  top: "loss"
}
I0824 19:08:15.368974  7187 layer_factory.hpp:77] Creating layer cifar
I0824 19:08:15.369122  7187 db_lmdb.cpp:35] Opened lmdb ../cifar10_train_lmdb
I0824 19:08:15.369160  7187 net.cpp:84] Creating Layer cifar
I0824 19:08:15.369189  7187 net.cpp:380] cifar -> data
I0824 19:08:15.369305  7187 net.cpp:380] cifar -> label
I0824 19:08:15.369356  7187 data_transformer.cpp:25] Loading mean file from: ../mean.binaryproto
I0824 19:08:15.370589  7187 data_layer.cpp:45] output data size: 100,3,32,32
I0824 19:08:15.375033  7187 base_data_layer.cpp:72] Initializing prefetch
I0824 19:08:15.375196  7187 base_data_layer.cpp:75] Prefetch initialized.
I0824 19:08:15.375205  7187 net.cpp:122] Setting up cifar
I0824 19:08:15.375252  7187 net.cpp:129] Top shape: 100 3 32 32 (307200)
I0824 19:08:15.375269  7187 net.cpp:129] Top shape: 100 (100)
I0824 19:08:15.375272  7187 net.cpp:137] Memory required for data: 1229200
I0824 19:08:15.375291  7187 layer_factory.hpp:77] Creating layer conv1
I0824 19:08:15.375363  7187 net.cpp:84] Creating Layer conv1
I0824 19:08:15.375377  7187 net.cpp:406] conv1 <- data
I0824 19:08:15.375409  7187 net.cpp:380] conv1 -> conv1
I0824 19:08:15.378188  7192 data_layer.cpp:128] Prefetch batch: 2 ms.
I0824 19:08:15.378212  7192 data_layer.cpp:129]      Read time: 0.154 ms.
I0824 19:08:15.378218  7192 data_layer.cpp:130] Transform time: 2.184 ms.
I0824 19:08:15.387078  7192 data_layer.cpp:128] Prefetch batch: 2 ms.
I0824 19:08:15.387111  7192 data_layer.cpp:129]      Read time: 0.164 ms.
I0824 19:08:15.387115  7192 data_layer.cpp:130] Transform time: 2.227 ms.
I0824 19:08:15.403631  7192 data_layer.cpp:128] Prefetch batch: 12 ms.
I0824 19:08:15.403648  7192 data_layer.cpp:129]      Read time: 0.161 ms.
I0824 19:08:15.403666  7192 data_layer.cpp:130] Transform time: 7.412 ms.
I0824 19:08:15.427178  7192 data_layer.cpp:128] Prefetch batch: 4 ms.
I0824 19:08:15.427213  7192 data_layer.cpp:129]      Read time: 0.166 ms.
I0824 19:08:15.427219  7192 data_layer.cpp:130] Transform time: 3.579 ms.
I0824 19:08:16.064751  7187 cudnn_conv_layer.cpp:194] Reallocating workspace storage: 589824
I0824 19:08:16.064779  7187 net.cpp:122] Setting up conv1
I0824 19:08:16.064791  7187 net.cpp:129] Top shape: 100 90 32 32 (9216000)
I0824 19:08:16.064793  7187 net.cpp:137] Memory required for data: 38093200
I0824 19:08:16.064882  7187 layer_factory.hpp:77] Creating layer relu1
I0824 19:08:16.064925  7187 net.cpp:84] Creating Layer relu1
I0824 19:08:16.064945  7187 net.cpp:406] relu1 <- conv1
I0824 19:08:16.064980  7187 net.cpp:367] relu1 -> conv1 (in-place)
I0824 19:08:16.066326  7187 net.cpp:122] Setting up relu1
I0824 19:08:16.066334  7187 net.cpp:129] Top shape: 100 90 32 32 (9216000)
I0824 19:08:16.066335  7187 net.cpp:137] Memory required for data: 74957200
I0824 19:08:16.066339  7187 layer_factory.hpp:77] Creating layer conv2
I0824 19:08:16.066360  7187 net.cpp:84] Creating Layer conv2
I0824 19:08:16.066365  7187 net.cpp:406] conv2 <- conv1
I0824 19:08:16.066391  7187 net.cpp:380] conv2 -> conv2
I0824 19:08:16.067121  7187 net.cpp:122] Setting up conv2
I0824 19:08:16.067132  7187 net.cpp:129] Top shape: 100 90 30 30 (8100000)
I0824 19:08:16.067136  7187 net.cpp:137] Memory required for data: 107357200
I0824 19:08:16.067150  7187 layer_factory.hpp:77] Creating layer bn2
I0824 19:08:16.067179  7187 net.cpp:84] Creating Layer bn2
I0824 19:08:16.067185  7187 net.cpp:406] bn2 <- conv2
I0824 19:08:16.067195  7187 net.cpp:367] bn2 -> conv2 (in-place)
I0824 19:08:16.067345  7187 net.cpp:122] Setting up bn2
I0824 19:08:16.067351  7187 net.cpp:129] Top shape: 100 90 30 30 (8100000)
I0824 19:08:16.067353  7187 net.cpp:137] Memory required for data: 139757200
I0824 19:08:16.067387  7187 layer_factory.hpp:77] Creating layer scale2
I0824 19:08:16.067430  7187 net.cpp:84] Creating Layer scale2
I0824 19:08:16.067446  7187 net.cpp:406] scale2 <- conv2
I0824 19:08:16.067468  7187 net.cpp:367] scale2 -> conv2 (in-place)
I0824 19:08:16.067535  7187 layer_factory.hpp:77] Creating layer scale2
I0824 19:08:16.067677  7187 net.cpp:122] Setting up scale2
I0824 19:08:16.067683  7187 net.cpp:129] Top shape: 100 90 30 30 (8100000)
I0824 19:08:16.067685  7187 net.cpp:137] Memory required for data: 172157200
I0824 19:08:16.067714  7187 layer_factory.hpp:77] Creating layer relu2
I0824 19:08:16.067723  7187 net.cpp:84] Creating Layer relu2
I0824 19:08:16.067728  7187 net.cpp:406] relu2 <- conv2
I0824 19:08:16.067735  7187 net.cpp:367] relu2 -> conv2 (in-place)
I0824 19:08:16.068547  7187 net.cpp:122] Setting up relu2
I0824 19:08:16.068557  7187 net.cpp:129] Top shape: 100 90 30 30 (8100000)
I0824 19:08:16.068558  7187 net.cpp:137] Memory required for data: 204557200
I0824 19:08:16.068578  7187 layer_factory.hpp:77] Creating layer conv3
I0824 19:08:16.068590  7187 net.cpp:84] Creating Layer conv3
I0824 19:08:16.068595  7187 net.cpp:406] conv3 <- conv2
I0824 19:08:16.068608  7187 net.cpp:380] conv3 -> conv3
I0824 19:08:16.069320  7187 net.cpp:122] Setting up conv3
I0824 19:08:16.069332  7187 net.cpp:129] Top shape: 100 360 30 30 (32400000)
I0824 19:08:16.069350  7187 net.cpp:137] Memory required for data: 334157200
I0824 19:08:16.069358  7187 layer_factory.hpp:77] Creating layer relu3
I0824 19:08:16.069370  7187 net.cpp:84] Creating Layer relu3
I0824 19:08:16.069384  7187 net.cpp:406] relu3 <- conv3
I0824 19:08:16.069408  7187 net.cpp:367] relu3 -> conv3 (in-place)
I0824 19:08:16.070732  7187 net.cpp:122] Setting up relu3
I0824 19:08:16.070739  7187 net.cpp:129] Top shape: 100 360 30 30 (32400000)
I0824 19:08:16.070742  7187 net.cpp:137] Memory required for data: 463757200
I0824 19:08:16.070745  7187 layer_factory.hpp:77] Creating layer conv4
I0824 19:08:16.070757  7187 net.cpp:84] Creating Layer conv4
I0824 19:08:16.070762  7187 net.cpp:406] conv4 <- conv3
I0824 19:08:16.070776  7187 net.cpp:380] conv4 -> conv4
I0824 19:08:16.070972  7187 net.cpp:122] Setting up conv4
I0824 19:08:16.070979  7187 net.cpp:129] Top shape: 100 10 28 28 (784000)
I0824 19:08:16.070982  7187 net.cpp:137] Memory required for data: 466893200
I0824 19:08:16.070991  7187 layer_factory.hpp:77] Creating layer pool
I0824 19:08:16.071007  7187 net.cpp:84] Creating Layer pool
I0824 19:08:16.071012  7187 net.cpp:406] pool <- conv4
I0824 19:08:16.071022  7187 net.cpp:380] pool -> pool
I0824 19:08:16.072962  7187 net.cpp:122] Setting up pool
I0824 19:08:16.072969  7187 net.cpp:129] Top shape: 100 10 1 1 (1000)
I0824 19:08:16.072973  7187 net.cpp:137] Memory required for data: 466897200
I0824 19:08:16.072976  7187 layer_factory.hpp:77] Creating layer loss
I0824 19:08:16.072991  7187 net.cpp:84] Creating Layer loss
I0824 19:08:16.072996  7187 net.cpp:406] loss <- pool
I0824 19:08:16.073004  7187 net.cpp:406] loss <- label
I0824 19:08:16.073014  7187 net.cpp:380] loss -> loss
I0824 19:08:16.073029  7187 layer_factory.hpp:77] Creating layer loss
…
I0824 19:08:16.075474  7187 solver.cpp:172] Creating test net (#0) specified by net file: Conv_cifar10_quick_train_test.prototxt
I0824 19:08:16.075510  7187 net.cpp:294] The NetState phase (1) differed from the phase (0) specified by a rule in layer cifar
I0824 19:08:16.075574  7187 net.cpp:51] Initializing net from parameters: 
name: "PSConv_CIFAR10"
state {
  phase: TEST
}
layer {
  name: "cifar"
  type: "Data"
  top: "data"
  top: "label"
  include {
    phase: TEST
  }
  transform_param {
    mean_file: "../mean.binaryproto"
  }
  data_param {
    source: "../cifar10_test_lmdb"
    batch_size: 100
    backend: LMDB
  }
}
layer {
  name: "conv1"
  type: "Convolution"
  bottom: "data"
  top: "conv1"
  param {
    lr_mult: 1
  }
  param {
    lr_mult: 2
  }
  convolution_param {
    num_output: 90
    pad: 1
    kernel_size: 3
    stride: 1
  }
}
layer {
  name: "relu1"
  type: "ReLU"
  bottom: "conv1"
  top: "conv1"
}
layer {
  name: "conv2"
  type: "Convolution"
  bottom: "conv1"
  top: "conv2"
  param {
    lr_mult: 1
  }
  param {
    lr_mult: 2
  }
  convolution_param {
    num_output: 90
    pad: 1
    kernel_size: 3
    stride: 1
    engine: CAFFE
    dilation: 2
    ps_group: 9
    position_sensetive: true
  }
}
layer {
  name: "bn2"
  type: "BatchNorm"
  bottom: "conv2"
  top: "conv2"
}
layer {
  name: "scale2"
  type: "Scale"
  bottom: "conv2"
  top: "conv2"
  scale_param {
    bias_term: true
  }
}
layer {
  name: "relu2"
  type: "ReLU"
  bottom: "conv2"
  top: "conv2"
}
layer {
  name: "conv3"
  type: "Convolution"
  bottom: "conv2"
  top: "conv3"
  convolution_param {
    num_output: 360
    pad: 1
    kernel_size: 3
    stride: 1
    engine: CAFFE
    ps_group: 9
    position_sensetive: true
  }
}
layer {
  name: "relu3"
  type: "ReLU"
  bottom: "conv3"
  top: "conv3"
}
layer {
  name: "conv4"
  type: "Convolution"
  bottom: "conv3"
  top: "conv4"
  convolution_param {
    num_output: 10
    pad: 1
    kernel_size: 3
    stride: 1
    engine: CAFFE
    dilation: 2
    ps_group: 9
    position_sensetive: true
  }
}
layer {
  name: "pool"
  type: "Pooling"
  bottom: "conv4"
  top: "pool"
  pooling_param {
    pool: AVE
    global_pooling: true
  }
}
layer {
  name: "accuracy"
  type: "Accuracy"
  bottom: "pool"
  bottom: "label"
  top: "accuracy"
  include {
    phase: TEST
  }
}
layer {
  name: "loss"
  type: "SoftmaxWithLoss"
  bottom: "pool"
  bottom: "label"
  top: "loss"
}
I0824 19:08:16.075778  7187 layer_factory.hpp:77] Creating layer cifar
I0824 19:08:16.075848  7187 db_lmdb.cpp:35] Opened lmdb ../cifar10_test_lmdb
I0824 19:08:16.075883  7187 net.cpp:84] Creating Layer cifar
I0824 19:08:16.075898  7187 net.cpp:380] cifar -> data
I0824 19:08:16.075922  7187 net.cpp:380] cifar -> label
I0824 19:08:16.075940  7187 data_transformer.cpp:25] Loading mean file from: ../mean.binaryproto
I0824 19:08:16.076118  7187 data_layer.cpp:45] output data size: 100,3,32,32
I0824 19:08:16.086339  7187 base_data_layer.cpp:72] Initializing prefetch
I0824 19:08:16.086421  7187 base_data_layer.cpp:75] Prefetch initialized.
I0824 19:08:16.086427  7187 net.cpp:122] Setting up cifar
I0824 19:08:16.086454  7187 net.cpp:129] Top shape: 100 3 32 32 (307200)
I0824 19:08:16.086475  7187 net.cpp:129] Top shape: 100 (100)
I0824 19:08:16.086479  7187 net.cpp:137] Memory required for data: 1229200
I0824 19:08:16.086496  7187 layer_factory.hpp:77] Creating layer label_cifar_1_split
I0824 19:08:16.086527  7187 net.cpp:84] Creating Layer label_cifar_1_split
I0824 19:08:16.086539  7187 net.cpp:406] label_cifar_1_split <- label
I0824 19:08:16.086588  7187 net.cpp:380] label_cifar_1_split -> label_cifar_1_split_0
I0824 19:08:16.086611  7187 net.cpp:380] label_cifar_1_split -> label_cifar_1_split_1
I0824 19:08:16.086686  7187 net.cpp:122] Setting up label_cifar_1_split
I0824 19:08:16.086695  7187 net.cpp:129] Top shape: 100 (100)
I0824 19:08:16.086701  7187 net.cpp:129] Top shape: 100 (100)
I0824 19:08:16.086704  7187 net.cpp:137] Memory required for data: 1230000
I0824 19:08:16.086709  7187 layer_factory.hpp:77] Creating layer conv1
I0824 19:08:16.086730  7187 net.cpp:84] Creating Layer conv1
I0824 19:08:16.086736  7187 net.cpp:406] conv1 <- data
I0824 19:08:16.086751  7187 net.cpp:380] conv1 -> conv1
I0824 19:08:16.088263  7187 cudnn_conv_layer.cpp:194] Reallocating workspace storage: 589824
I0824 19:08:16.088279  7187 net.cpp:122] Setting up conv1
I0824 19:08:16.088287  7187 net.cpp:129] Top shape: 100 90 32 32 (9216000)
I0824 19:08:16.088290  7187 net.cpp:137] Memory required for data: 38094000
I0824 19:08:16.088313  7187 layer_factory.hpp:77] Creating layer relu1
I0824 19:08:16.088327  7187 net.cpp:84] Creating Layer relu1
I0824 19:08:16.088335  7187 net.cpp:406] relu1 <- conv1
I0824 19:08:16.088347  7187 net.cpp:367] relu1 -> conv1 (in-place)
I0824 19:08:16.090445  7187 net.cpp:122] Setting up relu1
I0824 19:08:16.090454  7187 net.cpp:129] Top shape: 100 90 32 32 (9216000)
I0824 19:08:16.090459  7187 net.cpp:137] Memory required for data: 74958000
I0824 19:08:16.090466  7187 layer_factory.hpp:77] Creating layer conv2
I0824 19:08:16.090486  7187 net.cpp:84] Creating Layer conv2
I0824 19:08:16.090492  7187 net.cpp:406] conv2 <- conv1
I0824 19:08:16.090512  7187 net.cpp:380] conv2 -> conv2
I0824 19:08:16.090735  7187 net.cpp:122] Setting up conv2
I0824 19:08:16.090745  7187 net.cpp:129] Top shape: 100 90 30 30 (8100000)
I0824 19:08:16.090749  7187 net.cpp:137] Memory required for data: 107358000
I0824 19:08:16.090766  7187 layer_factory.hpp:77] Creating layer bn2
I0824 19:08:16.090780  7187 net.cpp:84] Creating Layer bn2
I0824 19:08:16.090786  7187 net.cpp:406] bn2 <- conv2
I0824 19:08:16.090798  7187 net.cpp:367] bn2 -> conv2 (in-place)
I0824 19:08:16.090951  7187 net.cpp:122] Setting up bn2
I0824 19:08:16.090958  7187 net.cpp:129] Top shape: 100 90 30 30 (8100000)
I0824 19:08:16.090963  7187 net.cpp:137] Memory required for data: 139758000
I0824 19:08:16.090983  7187 layer_factory.hpp:77] Creating layer scale2
I0824 19:08:16.090997  7187 net.cpp:84] Creating Layer scale2
I0824 19:08:16.091003  7187 net.cpp:406] scale2 <- conv2
I0824 19:08:16.091017  7187 net.cpp:367] scale2 -> conv2 (in-place)
I0824 19:08:16.091063  7187 layer_factory.hpp:77] Creating layer scale2
I0824 19:08:16.091181  7187 net.cpp:122] Setting up scale2
I0824 19:08:16.091200  7187 net.cpp:129] Top shape: 100 90 30 30 (8100000)
I0824 19:08:16.091212  7187 net.cpp:137] Memory required for data: 172158000
I0824 19:08:16.091239  7187 layer_factory.hpp:77] Creating layer relu2
I0824 19:08:16.091261  7187 net.cpp:84] Creating Layer relu2
I0824 19:08:16.091276  7187 net.cpp:406] relu2 <- conv2
I0824 19:08:16.091300  7187 net.cpp:367] relu2 -> conv2 (in-place)
I0824 19:08:16.091315  7193 data_layer.cpp:128] Prefetch batch: 4 ms.
I0824 19:08:16.091328  7193 data_layer.cpp:129]      Read time: 0.262 ms.
I0824 19:08:16.091334  7193 data_layer.cpp:130] Transform time: 3.807 ms.
I0824 19:08:16.092732  7187 net.cpp:122] Setting up relu2
I0824 19:08:16.092742  7187 net.cpp:129] Top shape: 100 90 30 30 (8100000)
I0824 19:08:16.092746  7187 net.cpp:137] Memory required for data: 204558000
I0824 19:08:16.092752  7187 layer_factory.hpp:77] Creating layer conv3
I0824 19:08:16.092769  7187 net.cpp:84] Creating Layer conv3
I0824 19:08:16.092777  7187 net.cpp:406] conv3 <- conv2
I0824 19:08:16.092792  7187 net.cpp:380] conv3 -> conv3
I0824 19:08:16.095175  7187 net.cpp:122] Setting up conv3
I0824 19:08:16.095202  7187 net.cpp:129] Top shape: 100 360 30 30 (32400000)
I0824 19:08:16.095206  7187 net.cpp:137] Memory required for data: 334158000
I0824 19:08:16.095216  7187 layer_factory.hpp:77] Creating layer relu3
I0824 19:08:16.095228  7187 net.cpp:84] Creating Layer relu3
I0824 19:08:16.095233  7187 net.cpp:406] relu3 <- conv3
I0824 19:08:16.095245  7187 net.cpp:367] relu3 -> conv3 (in-place)
I0824 19:08:16.095388  7187 net.cpp:122] Setting up relu3
I0824 19:08:16.095394  7187 net.cpp:129] Top shape: 100 360 30 30 (32400000)
I0824 19:08:16.095396  7187 net.cpp:137] Memory required for data: 463758000
I0824 19:08:16.095415  7187 layer_factory.hpp:77] Creating layer conv4
I0824 19:08:16.095428  7187 net.cpp:84] Creating Layer conv4
I0824 19:08:16.095433  7187 net.cpp:406] conv4 <- conv3
I0824 19:08:16.095446  7187 net.cpp:380] conv4 -> conv4
I0824 19:08:16.095666  7187 net.cpp:122] Setting up conv4
I0824 19:08:16.095690  7187 net.cpp:129] Top shape: 100 10 28 28 (784000)
I0824 19:08:16.095691  7187 net.cpp:137] Memory required for data: 466894000
I0824 19:08:16.095700  7187 layer_factory.hpp:77] Creating layer pool
I0824 19:08:16.095711  7187 net.cpp:84] Creating Layer pool
I0824 19:08:16.095717  7187 net.cpp:406] pool <- conv4
I0824 19:08:16.095728  7187 net.cpp:380] pool -> pool
I0824 19:08:16.097110  7187 net.cpp:122] Setting up pool
I0824 19:08:16.097118  7187 net.cpp:129] Top shape: 100 10 1 1 (1000)
I0824 19:08:16.097136  7187 net.cpp:137] Memory required for data: 466898000
I0824 19:08:16.097139  7187 layer_factory.hpp:77] Creating layer pool_pool_0_split
I0824 19:08:16.097148  7187 net.cpp:84] Creating Layer pool_pool_0_split
I0824 19:08:16.097153  7187 net.cpp:406] pool_pool_0_split <- pool
I0824 19:08:16.097165  7187 net.cpp:380] pool_pool_0_split -> pool_pool_0_split_0
I0824 19:08:16.097177  7187 net.cpp:380] pool_pool_0_split -> pool_pool_0_split_1
I0824 19:08:16.097244  7187 net.cpp:122] Setting up pool_pool_0_split
I0824 19:08:16.097251  7187 net.cpp:129] Top shape: 100 10 1 1 (1000)
I0824 19:08:16.097255  7187 net.cpp:129] Top shape: 100 10 1 1 (1000)
I0824 19:08:16.097259  7187 net.cpp:137] Memory required for data: 466906000
I0824 19:08:16.097263  7187 layer_factory.hpp:77] Creating layer accuracy
I0824 19:08:16.097281  7187 net.cpp:84] Creating Layer accuracy
I0824 19:08:16.097287  7187 net.cpp:406] accuracy <- pool_pool_0_split_0
I0824 19:08:16.097295  7193 data_layer.cpp:128] Prefetch batch: 4 ms.
I0824 19:08:16.097299  7187 net.cpp:406] accuracy <- label_cifar_1_split_0
…
